model/mnist_model.pkl (torch, 258827 bytes, 8 tensors)

weight f4 [32, 1, 5, 5]
-0.99553925 -0.9765114 -0.8666095 -1.0218551 -1.19633 -0.75032365 -0.72675294 -0.73622453
-0.5690967 -0.39667642 -0.8600805 -0.50848657 0.54673046 0.45224664 0.7179022 -0.46722713
-0.8403364 -0.27588284 0.15621455 0.59403896 -0.5556963 -1.020782 -1.0172889 0.40267226
0.44841045 -0.76010716 -0.8697017 -0.7858543 -0.25790662 0.36099654 -0.7868094 -0.45468193
-0.4607765 -0.009980801 0.29559025 -0.55063665 -0.5970269 -0.29004744 0.11740677 0.11624928
-0.703122 -0.43894744 -0.32551962 -0.11981582 0.2270571 -0.43248987 -0.4272507 -0.07176938
0.11655281 0.3104937 0.4350855 0.107436456 0.10965808 0.361918 -1.534911 -0.17605263
-0.18646331 0.28452224 0.4098854 -1.9966595 0.3436398 0.8861605 0.87354064 -0.41994286
-1.9867201 -0.025503531 0.6259203 -1.1075531 -1.7544632 -0.32354382 -2.1209514 -1.7717371
-1.7129132 -0.14053996 1.0436585 0.72107273 0.06831517 0.18219101 -0.27330485 0.2939644
0.26429304 0.36672047 0.5747186 0.61836267 0.605157 -0.5408946 -0.15931049 -0.19356062
0.35014322 -0.32983354 -1.2277054 -1.2176309 -0.9744869 -1.0510422 -0.983101 0.13958153
-0.036159433 -0.5596543 -1.1150173 -1.2211013 -0.22064129 0.15191814 0.34432662 0.53341115
0.14154601 -0.23467156 0.47595096 0.78923905 0.7780733 -1.6036836 -0.909238 0.54980385
0.9041761 -0.6480217 -1.0225711 -1.9709609 -1.0906293 -2.2763338 -1.743741 -0.31668982
-0.64168787 -1.0188062 -0.36999846 0.74029154 0.43113676 -0.20872504 0.9621797 0.2679582
-0.8362907 -0.39892676 0.4702961 1.0193418 -0.09726531 -0.22549649 0.80545074 0.20610048
0.38385245 -0.58399004 -0.11116863 1.1146272 0.2079354 0.6971781 0.2672856 0.77359104
1.6728101 0.29124463 0.62544733 0.04580125 -0.21956933 0.7300134 -0.13798374 -1.2844459
-1.3528596 -1.1940062 -0.6848748 -0.36211136 -0.262249 0.31059796 0.06337866 -0.34272304
1.2157149 1.183415 0.752553 0.3531114 -0.64811 -0.22706255 -0.15407601 -0.21789747
0.12473989 -0.42158422 -2.2150552 -2.067356 -1.2062889 0.10266291 0.44077206 0.0048070196
0.38283846 0.16141617 -0.0033710937 -0.8569386 -0.43869516 0.09452951 0.5392847 0.038794283
-1.3439436 -1.0842342 -0.5864488 0.9164727 0.4794424 -1.2017202 -1.5825689 -0.68622893
1.2250892 0.8857041 -0.5357764 -1.0217899 -0.6096253 -0.17071167 0.40440664 0.1613003
0.12983291 0.15583834 0.15296808 -0.23397136 0.4514853 -0.34301952 0.49117777 0.3077499
0.26721132 0.81163406 -1.1009275 0.6066475 0.37205687 0.49738935 0.4438866 -1.7689937
-0.5193552 0.72410613 -0.018723432 -1.0064328 -1.1811929 -1.7233056 -1.7713714 -1.6482494
-0.8522662 -0.6922833 -1.0597938 -0.8481661 -0.60112727 0.025192482 -1.0195782 -1.4528297
-1.5248561 -0.060518686 0.29348162 -0.9367855 -1.1936779 0.36476776 1.0879824 -0.34086567
-1.3556807 0.4211858 1.3088225 0.07448684 -1.7626647 -0.3474857 0.44202724 0.33990216
-0.72293305 -0.7886117 -1.1931863 -0.48377576 0.8272149 0.8455522 -0.29491982 -1.3922249
00000000: a9db 7ebf a7fc 79bf 1fda 5dbf 26cc 82bf
00000010: 5721 99bf 3615 40bf 7b0c 3abf 3679 3cbf
00000020: 52b0 11bf 2c19 cbbe 3c2e 5cbf 2d2c 02bf
00000030: 87f6 0b3f df8c e73e 70c8 373f 6538 efbe
00000040: 4920 57bf 8440 8dbe b5f6 1f3e f012 183f
00000050: 1d42 0ebf fca8 82bf 8636 82bf 0f2b ce3e
00000060: 0e96 e53e 6296 42bf c5a4 5ebf bf2d 49bf
00000070: 560c 84be 8ad4 b83e 576c 49bf 12cc e8be
00000080: e6ea ebbe 8386 23bc 9b57 973e 86f6 0cbf
00000090: c1d6 18bf 1981 94be f672 f03d 1a14 ee3d
000000a0: ceff 33bf b8bd e0be 82aa a6be ff61 f5bd
000000b0: a881 683e 506f ddbe 9bc0 dabe d3fb 92bd
000000c0: 3db3 ee3d 08f9 9e3e 87c3 de3e a507 dc3d
000000d0: 6a94 e03d 514d b93e f777 c4bf 2447 34be
000000e0: 3df0 3ebe e6ac 913e 80dc d13e 8a92 ffbf
000000f0: 8ef1 af3e 6adb 623f 5ca0 5f3f c002 d7be
00000100: d84c febf c8ec d0bc 503c 203f 4dc4 8dbf
00000110: 4092 e0bf 89a7 a5be abbd 07c0 48c8 e2bf
00000120: bd40 dbbf b5e9 0fbe 9a96 853f 3998 383f
00000130: d3e8 8b3d 4890 3a3e 9dee 8bbe 8082 963e
00000140: 6b51 873e c9c2 bb3e c220 133f 044d 1e3f
00000150: 92eb 1a3f 1278 0abf 4a22 23be c134 46be
00000160: f945 b33e f1df a8be 7325 9dbf 54db 9bbf
00000170: f977 79bf 8d88 86bf 82ac 7bbf 76ee 0e3e
00000180: ea1b 14bd 8145 0fbf e3b8 8ebf 0c4d 9cbf
00000190: caef 61be 6e90 1b3e 944b b03e a28d 083f
000001a0: 70f1 103e be4d 70be d8af f33e 920b 4a3f
000001b0: d02f 473f 8145 cdbf d2c3 68bf f2bf 0c3f
000001c0: 1678 673f c0e4 25bf 9ce3 82bf 7248 fcbf
000001d0: be99 8bbf 74af 11c0 e832 dfbf 2b25 a2be
000001e0: a845 24bf 3e68 82bf 7070 bdbe bf83 3d3f
000001f0: f5bd dc3e 04bc 55be 6951 763f d131 893e
00000200: 2617 56bf 2140 ccbe a7ca f03e cb79 823f
00000210: 0933 c7bd 8de8 66be 0532 4e3f 010c 533e
00000220: 4f88 c43e 5f80 15bf 61ac e3bd 1bac 8e3f
00000230: 04ed 543e 447a 323f a8d9 883e 100a 463f
00000240: a41e d63f 041e 953e 511d 203f 179a 3b3d
00000250: c8d6 60be 28e2 3a3f 9c4b 0dbe b968 a4bf
00000260: 812a adbf 32d5 98bf f453 2fbf a966 b9be
00000270: 8045 86be b206 9f3e accc 813d 6579 afbe
00000280: 8c9c 9b3f 257a 973f 50a7 403f 04cb b43e
00000290: 89ea 25bf 1683 68be 1ac6 1dbe 8420 5fbe
000002a0: a177 ff3d e3d9 d7be 77c3 0dc0 904f 04c0
000002b0: ad67 9abf ef40 d23d e0ac e13e 3484 9d3b
000002c0: 6703 c43e 484a 253e 91ed 5cbb 5460 5bbf
000002d0: a79c e0be b098 c13d 900e 0a3f c1e6 1e3d
000002e0: 5806 acbf 30c8 8abf 8221 16bf f49d 6a3f
000002f0: 7979 f53e f8d1 99bf 9e91 cabf b3ac 2fbf
00000300: b9cf 9c3f 81bd 623f a428 09bf 03ca 82bf
00000310: 6710 1cbf 0acf 2ebe 630e cf3e e82b 253e
00000320: ebf2 043e 1694 1f3e aaa3 1c3e 3096 6fbe
00000330: 1529 e73e 41a0 afbe a77b fb3e 6591 9d3e
00000340: eccf 883e 40c7 4f3f 31eb 8cbf 404d 1b3f
00000350: 3d7e be3e d1a9 fe3e 1b45 e33e 636e e2bf
00000360: 76f4 04bf 055f 393f e261 99bc cad2 80bf
00000370: 5431 97bf 4795 dcbf 4cbc e2bf d6f9 d2bf
00000380: 1e2e 5abf 7a39 31bf 53a7 87bf 6a21 59bf
00000390: 7ae3 19bf 7760 ce3c 8a81 82bf 53f6 b9bf
000003a0: 7c2e c3bf 71e2 77bd 3943 963e 2dd1 6fbf
000003b0: 70ca 98bf d7c2 ba3e 0243 8b3f f285 aebe
000003c0: f286 adbf aaa5 d73e 7f87 a73f 8e8c 983d
000003d0: ff9e e1bf a5e9 b1be 6551 e23e a807 ae3e
000003e0: 2412 39bf 75e2 49bf 54ba 98bf 75b1 f7be
000003f0: 5bc4 533f 1c76 583f bbff 96be 6d34 b2bf

bias f4 [32]
-0.20350271 0.08204485 -0.2666901 0.06360976 -0.39040434 0.04424125 -0.050577004 0.21181825
-0.11493722 0.45069814 0.0073039904 -0.022340212 0.17772168 0.043862954 -0.20574173 -0.2556399
-0.17987391 -0.20672601 -0.01104028 -0.3037181 0.0134556955 -0.108128615 -0.086227246 -0.046438195
-0.23588292 -0.19231406 0.0052614934 -0.21177517 -0.14230898 0.035100285 -0.15881974 -0.06017458
00000000: 0463 50be 2107 a83d 9b8b 88be d545 823d
00000010: 14e3 c7be 5036 353d d529 4fbd e2e6 583e
00000020: 3564 ebbd e8c1 e63e 5056 ef3b d202 b7bc
00000030: acfc 353e a4a9 333d f6ad 52be 3ce3 82be
00000040: de30 38be fcaf 53be 4ae2 34bc f080 9bbe
00000050: 4775 5c3c 8972 ddbd e997 b0bd fa35 3ebd
00000060: 4b8b 71be faed 44be 9b68 ac3b 97db 58be
00000070: 72b9 11be 51c5 0f3d a4a1 22be 9f79 76bd

weight f4 [32]
0.7199129 0.3777818 0.97714293 0.28170937 1.1979514 0.27422112 0.73662716 0.5959059
0.58430994 0.7733861 0.7102689 0.18679523 0.5291012 0.5804615 0.31220144 0.45680404
0.5093821 0.7664835 0.5848507 0.3719862 0.70954746 0.43059626 0.18965551 0.48275474
0.40485293 0.6352486 0.86409783 0.79972863 0.45626518 0.32802364 0.43407074 0.91945726
00000000: 364c 383f 9e6c c13e 0a26 7a3f 363c 903e
00000010: 7956 993f b666 8c3e 9993 3c3f 4a8d 183f
00000020: 5695 153f a2fc 453f 2fd4 353f 4047 3f3e
00000030: 2d73 073f 2099 143f ded8 9f3e 38e2 e93e
00000040: de66 023f 4338 443f c7b8 153f fa74 be3e
00000050: e7a4 353f 1d77 dc3e 0e35 423e a12b f73e
00000060: e248 cf3e a79f 223f 8435 5d3f 04bb 4c3f
00000070: 979b e93e b7f2 a73e 853e de3e 8d61 6b3f

bias f4 [32]
-0.5404717 -0.55880547 -0.63742644 -0.62264615 -0.7814768 -1.4025258 -0.62447953 -0.4709526
-0.34914657 -0.62091035 -0.46379635 -0.88140523 -0.6370409 -0.67954135 -0.4807906 -1.1546977
-0.6885957 -0.51301897 -0.5203656 -0.8780026 -0.5941979 -0.5286797 -1.1857061 -0.49813324
-0.7068651 -1.7382376 -0.68869424 -0.5025714 -1.4156142 -0.53446704 -0.5850926 -0.5430203
00000000: 5a5c 0abf e00d 0fbf 612e 23bf bd65 1fbf
00000010: dd0e 48bf f785 b3bf e4dd 1fbf b320 f1be
00000020: 57c3 b2be fbf3 1ebf b776 edbe c6a3 61bf
00000030: 1d15 23bf 6cf6 2dbf 2f2a f6be 22cd 93bf
00000040: cf47 30bf 3655 03bf ae36 05bf c7c4 60bf
00000050: 5b1d 18bf 8e57 07bf 38c5 97bf 520b ffbe
00000060: 1cf5 34bf 927e debf 444e 30bf 85a8 00bf
00000070: d932 b5bf d5d2 08bf a1c8 15bf 6103 0bbf

running_mean f4 [32]
-1.5904434 -0.81932 -1.5637549 -0.6928174 -1.4823811 1.087163 -1.1415459 -0.42862812
-1.0115181 -0.92166734 -0.85561645 0.70201033 -0.73685575 -0.7437918 -1.153033 -0.16612291
-1.222967 -1.6537821 -0.93398786 0.017199133 -0.83737963 -0.8765924 1.0115361 -0.69642425
-1.2173501 0.19883005 -0.89883286 -0.98666716 1.3328787 -0.8035537 -0.9205926 -1.0225435
00000000: a693 cbbf f5be 51bf 1f29 c8bf 7b5c 31bf
00000010: aabe bdbf 2828 8b3f 2d1e 92bf 2575 dbbe
00000020: 6d79 81bf 64f2 6bbf ae09 5bbf f3b6 333f
00000030: 94a2 3cbf 2469 3ebf 9696 93bf 201c 2abe
00000040: 2f8a 9cbf 22af d3bf d419 6fbf 32e5 8c3c
00000050: 835e 56bf 5c68 60bf 047a 813f dc48 32bf
00000060: 21d2 9bbf 1b9a 4b3e e919 66bf 3896 7cbf
00000070: c59b aa3f b2b5 4dbf f5ab 6bbf b5e2 82bf

running_var f4 [32]
6.7570534 3.3483932 6.755827 3.303348 5.076934 3.1433287 3.6989062 1.8417537
4.32152 6.1165977 2.9687397 1.5603237 2.3817008 2.1565554 3.3351831 2.039847
3.5609791 8.009858 4.2567654 0.912842 4.6504717 1.6665001 3.0238855 1.2973856
3.381527 1.6945586 2.2354712 3.434427 7.536934 2.128545 1.8039771 3.0127923
00000000: c839 d840 134c 5640 bc2f d840 0e6a 5340
00000010: 3e76 a240 4c2c 4940 e1ba 6c40 96be eb3f
00000020: e449 8a40 2bbb c340 d5ff 3d40 b0b8 c73f
00000030: c96d 1840 0105 0a40 a473 5540 da8c 0240
00000040: 15e7 6340 6128 0041 6c37 8840 03b0 693f
00000050: aad0 9440 e04f d53f 5787 4140 bb10 a63f
00000060: f06a 5840 4ce7 d83f f611 0f40 a7cd 5b40
00000070: 902e f140 153a 0840 b9e8 e63f 97d1 4040

weight f4 [10, 6272]
0.11842117 0.11821162 0.06510829 0.3075433 -0.010416013 -0.3828068 0.44448042 -0.43329814
-0.5392015 0.4561897 0.030958744 0.18501659 0.11883618 0.12835355 0.13622986 -0.41127554
-0.031064877 0.43555373 -0.040848132 0.102800824 0.14575306 -0.15543644 -0.67036295 0.21315055
0.106090724 -0.10966384 0.120794356 0.08562206 0.12841713 -0.15864216 -0.12079125 0.042549815
0.33249518 0.24384658 -0.15353519 -0.32354134 -0.25479117 -0.005727522 0.19814304 -0.10581734
0.0795373 0.049566988 0.18352355 0.018504038 0.18405627 0.012784817 0.26530263 -0.16649896
-0.018984385 -0.018955354 0.3093151 0.4626438 -0.38261577 0.014545588 0.14288482 0.099680126
0.060835082 -0.21712506 0.4232296 -0.21578032 -0.52327 0.13496216 0.08903534 -0.6896484
-0.17695612 0.16084798 0.68311936 0.039913338 0.13585645 0.12224839 -0.1755245 0.0037477277
0.5951718 0.053673558 0.5299089 0.75666183 -1.0533099 -0.679517 0.033216584 -0.29247367
1.2756717 0.009450399 0.13032746 0.14248386 -0.09531742 0.48435736 0.5395954 0.20941772
0.25489554 -0.16811618 -0.51530975 -1.3264494 -0.19203213 0.024631906 0.4167783 -0.089711666
0.068681434 0.11326037 -0.36037183 0.5228479 0.10518199 0.27027074 0.69892097 -0.8708512
-0.547202 -0.82242996 -0.15992787 0.25777674 -0.5679163 -0.034259576 0.005863632 0.12918565
-0.12510732 0.06680518 -0.3535539 -0.4467158 0.120178685 -0.23861435 -0.18700008 -0.22455677
-0.037759077 -0.045997072 -0.0055985283 -0.040387794 -0.0060049924 0.13582164 0.14345405 -0.42215228
-0.29435635 -0.46389225 -0.6359285 -0.6189973 -0.1969084 0.02870233 0.28458896 0.012963388
0.047640383 -0.48074776 -0.0076441877 0.11901907 0.074338526 -0.566989 -0.54018635 -0.58985186
-0.6899885 -0.7507287 -0.363436 0.16572204 -0.25803003 0.34933993 0.021515625 -0.08006212
0.09456426 0.118334375 0.055037063 -0.21033232 -0.4516579 -1.6351929 -1.5439757 -1.2190087
-0.5306921 -0.6699617 -0.45398054 -0.021612076 0.057312287 0.11220433 0.119641654 0.09778522
0.10139475 0.030780481 -0.39904702 -0.5312979 -0.94868976 -0.3850248 0.002530947 -0.51580375
0.11169757 0.08662298 0.100219205 0.08572145 0.111560576 0.11889695 0.11121318 0.07125614
0.100112766 0.10273191 0.14799945 0.07980968 0.07118748 0.07830113 0.08268785 0.0994726
0.09819561 0.11615584 0.11387282 0.12887265 0.058731806 0.08006117 0.07562978 0.047833927
0.01482982 0.013890186 -0.062163953 -0.012392992 0.003252909 0.11187083 0.0157313 0.07163639
0.061657775 0.052463192 0.045207273 0.04481182 -0.044519108 -0.05272871 -0.1361864 -0.05743281
-0.06636541 0.0062020803 -0.054782614 0.124494486 0.08651145 -0.0017267758 0.030772304 0.05463267
0.042115364 -0.041171435 -0.17635806 -0.16903052 -0.0056376006 0.07720275 -0.06677478 0.0016805273
-0.06914166 0.005763829 0.037180636 -0.06061286 0.033243455 0.043056924 0.027240539 -0.11260574
-0.022407904 -0.086332984 0.037874807 -0.102432504 -0.046768613 -0.027991652 -0.09730202 -0.009120335
-0.050812848 -0.08046712 -0.026610553 0.05001644 0.018328432 -0.10518685 0.008171052 -0.17383689
00000000: cc86 f23d ef18 f23d 7f57 853d 5176 9d3e
00000010: eda7 2abc 41ff c3be f092 e33e 41d9 ddbe
00000020: 1c09 0abf b291 e93e 319d fd3c fd74 3d3e
00000030: 6260 f33d 1d6f 033e d77f 0b3e b592 d2be
00000040: c57b febc e600 df3e 5f50 27bd 3d89 d23d
00000050: 4a40 153e bb2a 1fbe e89c 2bbf 2344 5a3e
00000060: 1846 d93d 6f97 e0bd 0863 f73d 9e5a af3d
00000070: c87f 033e 1773 22be 6761 f7bd b748 2e3d
00000080: cf3c aa3e ebb2 793e 5438 1dbe 36a7 a5be
00000090: fd73 82be f0ad bbbb 02e6 4a3e c3b6 d8bd
000000a0: 74e4 a23d c106 4b3d 99ed 3b3e c895 973c
000000b0: 3f79 3c3e 6977 513c bfd5 873e b47e 2abe
000000c0: 2485 9bbc 4248 9bbc 8c5e 9e3e a6df ec3e
000000d0: 37e6 c3be 9e50 6e3c 6650 123e 1825 cc3d
000000e0: 352e 793d 0856 5ebe 8db1 d83e 84f5 5cbe
000000f0: 06f5 05bf 8533 0a3e 2958 b63d cc8c 30bf
00000100: fc33 35be 55b5 243e e9e0 2e3f 2b7c 233d
00000110: f41d 0b3e 5d5d fa3d b2bc 33be 709c 753b
00000120: 2e5d 183f ced8 5b3d 1ca8 073f 97b4 413f
00000130: dcd2 86bf d3f4 2dbf 1d0e 083d 1cbf 95be
00000140: 3649 a33f d9d5 1a3c 9074 053e 4ae7 113e
00000150: c835 c3bd b0fd f73e ed22 0a3f 9971 563e
00000160: ab81 823e a626 2cbe 57eb 03bf 18c9 a9bf
00000170: 12a4 44be dac8 c93c f763 d53e c0ba b7bd
00000180: daa8 8c3d 0ef5 e73d a882 b8be 5cd9 053f
00000190: a869 d73d ed60 8a3e 7cec 323f 1bf0 5ebf
000001a0: 6e15 0cbf c58a 52bf 22c4 23be 50fb 833e
000001b0: f662 11bf c553 0cbd b623 c03b 3e49 043e
000001c0: 221c 00be 27d1 883d 0405 b5be efb7 e4be
000001d0: 3e20 f63d 5257 74be f37c 3fbe 36f2 65be
000001e0: 43a9 1abd 6d67 3cbd dc73 b7bb ac6d 25bd
000001f0: 87c5 c4bb d414 0b3e 9ee5 123e 5824 d8be
00000200: e0b5 96be 4983 edbe 36cc 22bf 9b76 1ebf
00000210: 5ba2 49be 2621 eb3c a5b5 913e 6464 543c
00000220: 9022 433d 9224 f6be 187c fabb 45c0 f33d
00000230: cc3e 983d 3126 11bf a749 0abf 8800 17bf
00000240: 16a3 30bf c22f 40bf 4914 babe 0ab3 293e
00000250: 831c 84be afdc b23e 8941 b03c 9cf7 a3bd
00000260: e8aa c13d 4b59 f23d 8b6e 613d 5b61 57be
00000270: b43f e7be 004e d1bf ffa0 c5bf 7a08 9cbf
00000280: 70db 07bf 9c82 2bbf 2370 e8be cf0b b1bc
00000290: 4ac0 6a3d 62cb e53d af06 f53d 9e43 c83d
000002a0: 0da8 cf3d 5927 fc3c e44f ccbe 2403 08bf
000002b0: 55dd 72bf f821 c5be 3fde 253b b70b 04bf
000002c0: b2c1 e43d 6467 b13d ba3f cd3d ba8e af3d
000002d0: df79 e43d 3e80 f33d bcc3 e33d bdee 913d
000002e0: ec07 cd3d 1c65 d23d 2b8d 173e 4273 a33d
000002f0: beca 913d 585c a03d 3f58 a93d 4ab8 cb3d
00000300: c81a c93d 1de3 ed3d 2736 e93d 31f7 033e
00000310: c390 703d 1cf7 a33d c9e3 9a3d 82ed 433d
00000320: c6f8 723c aa93 633c a19f 7ebd fa0b 4bbc
00000330: c22e 553b 891c e53d edde 803c 1ab6 923d
00000340: dd8c 7c3d a5e3 563d 432b 393d 998c 373d
00000350: ab59 36bd 0ffa 57bd 7374 0bbe ab3e 6bbd
00000360: 97ea 87bd d23a cb3b bc63 60bd f7f6 fe3d
00000370: ea2c b13d fb54 e2ba 3316 fc3c 82c6 5f3d
00000380: 2981 2c3d 61a3 28bd 3597 34be 5616 2dbe
00000390: 9fbb b8bb 7a1c 9e3d 37c1 88bd 2445 dc3a
000003a0: 259a 8dbd 81de bc3b b94a 183d 3145 78bd
000003b0: 4a2a 083d 755c 303d 8d27 df3c d79d e6bd
000003c0: c890 b7bc 59cf b0bd 9d22 1b3d 22c8 d1bd
000003d0: 7290 3fbd c04e e5bc 4846 c7bd 756d 15bc
000003e0: 2221 50bd f2cb a4bd 60fe d9bc 0ade 4c3d
000003f0: 8225 963c 346c d7bd e0df 053c 4c02 32be

bias f4 [10]
0.1758057 1.1453346 0.3843772 -0.49001372 0.039136812 0.055609416 -0.035251427 0.29073066
-0.45156294 -0.4712713
00000000: 6906 343e 539a 923f 17cd c43e 14e3 fabe
00000010: ec4d 203d b3c6 633d cd63 10bd a6da 943e
00000020: 4233 e7be 794a f1be
