model/model.pkl (torch, 8159 bytes, 3 tensors)

weight f4 [100, 13]
00000000: aa58 bcbc 924d 0bbe 5434 103e 5e31 763e
00000010: e767 643d 068c be3d 963f b13d 00b1 e9bd
00000020: 91ed 383d 0423 a3bd c7b4 3cbe be63 ffbd
00000030: 6c4f 78be 68d1 7d3d c887 edbd 10d3 593d
00000040: e01f 453c 8e98 d3bd b828 b8bd e41e 43bd
00000050: c851 6d3d 3cb4 1b3e 287e f2bc c0ab cf3d
00000060: 0494 3cbe f0b7 90bc c2d1 0bbc b395 74be
00000070: efa7 ee3d 9736 51bd 2e7f 073e 4413 efbd
00000080: a6f4 9fbd 9ffe 27bd bfc3 1e3c d72c 8cbc
00000090: b597 00be a6e2 e9bd 0430 b13d 3019 183d
000000a0: ea6b 88be 98d1 95be d338 03be 4b15 8ebd
000000b0: 719f 103e 6067 09bd f0d3 d1bd 680d 70be
000000c0: d1c2 913b 623e e03d 1a17 aebb 72d4 2a3b
000000d0: a891 293d c095 e83c e471 343e 8a9c 583e
000000e0: 89af 3fbe 88fc 0cbe 069b 5d3e 2ce7 353e
000000f0: 145e 363e 1185 70be 2c20 f93d 50b2 17bd
00000100: 9a48 703e 5ecc abbe dac4 a8bd 9bca 343b
00000110: a6b8 703e 5eb8 89be 532a 8fbe 8dfb 9dbe
00000120: d7e3 453e 87f5 dd3d fb83 73bb 60e3 c73d
00000130: 3e2a a5be 43dc a1be 5a93 233e d3ef 93be
00000140: c0d0 36be a326 c4bd 8bc3 3cba a2c1 c2be
00000150: 2442 643d e4a1 163e 6321 97be 2d7a 02bd
00000160: 25b3 173e 144c 82bc 8939 653d 3ad4 8abe
00000170: 8348 3cbe 9edf a5be 4fac 9e3d 3f2d ddbd
00000180: 5ee3 153e 09a0 2cbe 62a9 38be e352 80be
00000190: 3f16 53be 9dc2 063e f63e 3b3d 75dc 6abe
000001a0: 8b71 ccbf 372c ed3d 137c 8abf a422 c540
000001b0: 9957 d6be da7d 6440 26aa 02be c23a a43d
000001c0: fccf 35bf d047 173d 3c1f 72be 480f 80bc
000001d0: 5665 8dbf feb3 98be 8e83 82be bedf b0bd
000001e0: 4cf6 cdbd 99cb f6bd 0a9e 8f3a eee3 66bd
000001f0: a7a1 213e 12b7 62be 7220 88be 269b 35be
00000200: ff10 e93d 408d 95be 2759 00bf e8d8 52be
00000210: cef8 a3be 2217 1bbe 8333 8bbf 6848 693f
00000220: 85d2 76be a1df d6be 4b69 06bc 1d48 3f3e
00000230: 14d3 06bf 9315 223e 5825 ccbe e3ce 813d
00000240: bde8 07be 641b ab3d 5cb9 dabf 1ebf b63f
00000250: cfd5 b6bf 2e2f cfbe 7986 e43e 3690 253b
00000260: 4d99 f93d 1699 6c3e 26d8 4fbd 355d 593e
00000270: db65 6cbc debb b9bd 277f eebb 543b 813f
00000280: c4eb ac3f 2a1b eebf 85b2 1f3e fdf7 4f3e
00000290: 1d77 c93e bdac d6bd 14b7 14bd 99fc 333e
000002a0: 6f10 aa3f 485c 1f3e 14c7 53be 5a01 eabd
000002b0: 3cb6 bebd 117e 06be 08df a23d 6f34 29be
000002c0: bc5e 0cbe 8364 1dbe 77c1 7fbe 42ad 6b3e
000002d0: f605 10be 21dd 53be 285f bd3d bc0d 0dbd
000002e0: 6000 143d 2823 933d 5c29 043e a4df 50be
000002f0: 0077 203b be07 cdbd 5018 4a3d fed1 c8bd
00000300: 7d89 74be d031 bdbc 54d0 ccbd d2ab 8abe
00000310: 187d 4f3d b083 303d 0ab8 36be a454 9a3d
00000320: facb 773e 9029 8abc 5296 523e 7642 40be
00000330: 40dd c7bb a2d8 4bbe d728 77be 101c a6bd
00000340: 4515 b3bf 9099 78be 4dfb 1abf 0aa9 3040
00000350: 565b d4bf ca84 a83f b4e7 e0bd 1c9d 0ebf
00000360: 4af9 1cbf 6bf0 2d3e 1a3a 0f3e d1cf d5bd
00000370: 1f43 3abf 5259 d13d 3ba3 7e3d 4fe8 99be
00000380: 0435 88be 456c 653f 749a a1bf a13f 513e
00000390: 14a7 0a3e 4b0b 1d3e 2028 c23d e36c 783d
000003a0: aaca bcbd f978 413e 001d ec3d 87a6 8c3e
000003b0: ba51 293e 48fa a73d 8034 fe3c ac1e 473e
000003c0: b00b 173d 80dd 033b 640a 8c3d ef47 86be
000003d0: e015 25bd 90cc d5bc 6474 21be 0b73 e8be
000003e0: a1b5 3abf 415a 93bf ae19 51c1 8efa 253f
000003f0: 8019 f2be 221a 29be cdb9 4c40 41fa 5f3e
-0.022991497 -0.1360381 0.14082462 0.2404227 0.05576315 0.09304051 0.08654706 -0.11410713
0.045148436 -0.07965663 -0.18428336 -0.12470196 -0.24249047 0.061967283 -0.11598164 0.0531798
0.012031525 -0.10331832 -0.089921415 -0.04763688 0.05793932 0.15205473 -0.029601172 0.101401806
-0.18415838 -0.017665833 -0.008533897 -0.2388523 0.116531245 -0.05107745 0.13232109 -0.116735965
-0.07810335 -0.04101431 0.009690224 -0.017111225 -0.12557872 -0.11420183 0.086517364 0.037133396
-0.26644832 -0.2926147 -0.12814645 -0.06937655 0.14123322 -0.03354585 -0.10245502 -0.23442614
0.0044482728 0.109493986 -0.0053128125 0.0026066569 0.041398674 0.028391719 0.17621571 0.21153465
-0.18719305 -0.13768208 0.21641168 0.17763966 0.17809325 -0.23488261 0.121643394 -0.037035286
0.23465195 -0.33554357 -0.082406715 0.0027586583 0.23507938 -0.26898474 -0.27961978 -0.3085598
0.19325195 0.10837846 -0.0037157524 0.09760165 -0.3225879 -0.3161336 0.15974179 -0.2889391
-0.1785307 -0.09577682 -0.0007200769 -0.38038355 0.05572714 0.14710194 -0.2951766 -0.031854797
0.14814432 -0.015905418 0.055963073 -0.2711504 -0.18387036 -0.3239717 0.07747709 -0.10799646
0.14637515 -0.16857924 -0.18033364 -0.25063238 -0.20613955 0.13160177 0.04571434 -0.2293566
-1.597215 0.11580699 -1.0819114 6.1604786 -0.41863707 3.5701814 -0.12760219 0.0801902
-0.71020484 0.03693372 -0.23644727 -0.015632287 -1.104655 -0.29824823 -0.25490993 -0.086364254
-0.10056743 -0.12050552 0.0010957133 -0.056369714 0.15784322 -0.22140148 -0.26587254 -0.17734966
0.11380195 -0.29209328 -0.50136036 -0.20590556 -0.3202576 -0.15145543 -1.0875095 0.9112611
-0.24103744 -0.4196749 -0.008203815 0.18679853 -0.5266583 0.15828542 -0.3987224 0.06338289
-0.13272376 0.08354834 -1.7087817 1.4277074 -1.4283999 -0.40465683 0.44633844 0.0025262958
0.12187443 0.23105273 -0.050743245 0.21226962 -0.014428581 -0.09069036 -0.0072783413 1.009623
1.350945 -1.860204 0.15595444 0.20309444 0.3934869 -0.10482166 -0.03630741 0.17576827
1.3286265 0.15562546 -0.20681411 -0.11426039 -0.09312102 -0.13134028 0.07952696 -0.16523908
-0.13708013 -0.15370373 -0.24976145 0.23015311 -0.14064774 -0.20689823 0.09246665 -0.034436926
0.03613317 0.0718444 0.12906402 -0.20397812 0.0024484992 -0.10011242 0.049339592 -0.09805678
-0.23880573 -0.023095042 -0.10000673 -0.27084213 0.050656408 0.043094337 -0.17843643 0.07535675
0.24198905 -0.016865522 0.20565155 -0.18775353 -0.006099373 -0.19906858 -0.24136673 -0.08110821
-1.3990866 -0.2427733 -0.60539705 2.7603173 -1.6590374 1.3165524 -0.10981694 -0.5570848
-0.61317885 0.16986243 0.13987008 -0.104400285 -0.7275867 0.102221146 0.062167387 -0.3006005
-0.26602948 0.8961833 -1.262526 0.20434429 0.13540298 0.15336339 0.094803095 0.060650717
-0.092183426 0.18893804 0.11528969 0.274708 0.16535082 0.08202034 0.031030893 0.19445294
0.03687638 0.0020121038 0.06837919 -0.26226756 -0.040304065 -0.02609852 -0.15767056 -0.4540027
-0.72933394 -1.1511918 -13.068769 0.6483544 -0.4728508 -0.16513875 3.1988404 0.21872808

bias f4 [100]
00000000: 2997 083e 400f 2e3c 9e16 dc3b 7c2d 97be
00000010: 64dc 62be d07b 9f3d 24eb b2bd 1f79 96be
00000020: a4ed df3d 6965 e9bd 8d32 f13e 795d 7bbd
00000030: 831e 1dbf 6830 483d ad3b 883e be0b 58be
00000040: 6ddc 563e 2533 d8be 8402 ecbd 92f8 95be
00000050: b3b3 80be 004d c43e 0d66 813e 19e7 80bf
00000060: 5acf 6f3e e968 abbe 6c85 cdbe ac60 7bbe
00000070: ee57 be3e 001a 523c add0 04bf 80b8 f23b
00000080: 4510 d0be fe34 0a3e 00c3 09be b90b b53d
00000090: 3145 a8be 537c 03be 14ba e53d 00f9 223f
000000a0: 4e15 ad3e b34e 87bd 5b0a 64bd 96c1 103e
000000b0: f2a9 f33d 903d 933c 68aa 233f 86b4 92be
000000c0: b4ef f7be 4caa a7be 4128 82bc b62f 52be
000000d0: 4ab4 a43d 0d46 09bc 352d 503c e616 86bc
000000e0: a708 3abe ff77 f4bd 6f6c 94be 6cff 88be
000000f0: b140 dcbe f4b1 15bd 0e04 44be 0719 d53d
00000100: ce48 9dbd b1d9 c43f 7c83 dabd 0674 0a3e
00000110: da5a 38bf facf 48be 3222 8dbe 6fe0 4abe
00000120: 6402 5e3e 7ad7 8dbd 9ffd cd3d 2a6e d5be
00000130: 7bcd 32bf dc1e 62be 64d6 8bbe f80c f8bd
00000140: 16ee 303e 9453 57bd 6810 10bf 4d08 06bf
00000150: 8fca 32be 9d1d d93e 0b3d 8f3e 3739 61be
00000160: df70 b93e 83bf 9cbe 2d7e 4b3d 3cf9 9a3d
00000170: 2848 933e f7fb 64bd e93f 1bbf f1a7 2d3e
00000180: 47f3 1840 e949 5d3f a2f7 2a3f 77c9 f7be
0.13338913 0.010623753 0.0067165634 -0.2952689 -0.22154385 0.07787287 -0.08736256 -0.29389283
0.10933998 -0.113962956 0.4710888 -0.06136844 -0.6137468 0.04887429 0.2660803 -0.2109823
0.20982523 -0.4222652 -0.11523917 -0.29291207 -0.251371 0.38339996 0.2527317 -1.0070525
0.23418942 -0.33478478 -0.40140855 -0.24548596 0.3717646 0.012823582 -0.51880914 0.007407248
-0.40637413 0.13496777 -0.13453293 0.088401265 -0.3286529 -0.12840395 0.11217132 0.63661194
0.33805317 -0.066068076 -0.05567394 0.14136347 0.11897649 0.017973691 0.63931894 -0.28653353
-0.48425066 -0.32747114 -0.015888335 -0.20526013 0.080422 -0.008378518 0.012706091 -0.01636834
-0.18167363 -0.1193695 -0.28988978 -0.2675737 -0.43018106 -0.036546662 -0.19142172 0.10405164
-0.07679902 1.5378934 -0.1066961 0.13520822 -0.7201363 -0.19610587 -0.2756515 -0.19812177
0.216806 -0.069258645 0.1005814 -0.4168561 -0.6984479 -0.22082084 -0.27312005 -0.121118486
0.17278323 -0.05256994 -0.56275034 -0.52356416 -0.17460082 0.42405406 0.2797626 -0.21994482
0.36218926 -0.30614862 0.049680877 0.07567069 0.28765988 -0.055904355 -0.60644394 0.16958596
2.3898485 0.864409 0.6678411 -0.48395893

weight f4 [1, 100]
00000000: 3217 bbbc 4d71 a7bd 60f1 9cbb d8ca e9ba
00000010: 2a0e 303d c146 1d3d eccb fcba b936 653d
00000020: 011b e03e 29d2 393b df72 d03d 936b b33b
00000030: f13e 08be d838 c0bc dfb9 cc3d 2ed5 92bd
00000040: 52d3 9a3d 77c1 d53a b08a 6fbc 0fc4 3fbe
00000050: c2d7 703d de66 993c 6a5a 143d 6f30 06bf
00000060: 5446 bb3c 3463 143b b61d 6f3e 3b30 5dbb
00000070: d919 7fbd d230 263d 16c2 043c b26a 4a3d
00000080: 3bbd 84bd 53fb 7abd 5095 253f ec9f 4fbc
00000090: d309 a63c 1b7a a43c 276a 5cbd a575 3f3e
000000a0: 9fba af3e 7bd2 5e3d 6c6b fc3c cec8 7c3d
000000b0: ca7c 173e e9cb ab3d f698 ac3d 8d3c 0cbf
000000c0: 418a bebd a098 0dbc 0492 a9bc 19ad 9ebd
000000d0: 0121 523e e856 213d a6e2 98bc af11 d4bc
000000e0: 9297 bbbd d5a8 c13d ef2d 0c3d 1a24 283d
000000f0: 1345 453e 1ef0 023d 86b3 17bd 73f8 4bbe
00000100: 6536 ddbc a750 273f 05af 1b3d c00e 903c
00000110: 210c a3bd 2b34 bdbd d76e b4bd ab40 1f3a
00000120: 8328 303c 36a0 23bd 7ba2 10bd 2f28 5d3b
00000130: 02e2 c9bd d86a 7cbc 0026 eebb 55e8 9abd
00000140: acd2 b23c 8d7e b43d 3d70 b23e d19c c8bd
00000150: 2829 2f3c d2b4 5c3c 74cb 6d3d 2b45 92bc
00000160: 8bd7 093e 4854 f1bc a2b5 ca3e 90b1 273c
00000170: 32c2 02bc 7fc5 00bd aac0 a63b aba1 463e
00000180: 3113 8e3e ce50 333e 0887 d3be 4d08 bdbd
-0.022838209 -0.08175907 -0.0047895163 -0.0017836941 0.042982258 0.038397554 -0.0019286848 0.05596039
0.43770602 0.0028354025 0.1017816 0.0054754703 -0.1330526 -0.023464605 0.099963896 -0.07169567
0.075598374 0.0016308267 -0.014620468 -0.18727134 0.058799513 0.018725809 0.036219038 -0.52417654
0.022860684 0.0022642137 0.23351178 -0.0033750671 -0.06228051 0.040573902 0.008102914 0.04941816
-0.06481405 -0.061274838 0.6468096 -0.012672406 0.020268356 0.020077756 -0.053812172 0.18697222
0.34322068 0.05439995 0.030812941 0.06171494 0.14793697 0.08388502 0.084276125 -0.54779893
-0.093037136 -0.008642346 -0.020699508 -0.077478595 0.20520402 0.03938952 -0.018662762 -0.025887338
-0.09159769 0.0945603 0.034223493 0.041050054 0.19264631 0.031967275 -0.03703644 -0.19918995
-0.027003476 0.6535744 0.03800871 0.017585158 -0.07961298 -0.09238466 -0.088102035 0.0006075005
0.010751846 -0.03994771 -0.035311203 0.0033745875 -0.09857561 -0.015406333 -0.0072677135 -0.07563845
0.021828972 0.088132 0.34851256 -0.09795535 0.010690965 0.013470845 0.058055356 -0.017855247
0.1346113 -0.029459134 0.395917 0.010235205 -0.00798087 -0.031438347 0.0050888853 0.19397609
0.27749017 0.17511293 -0.41313958 -0.09230099
